…
        x = F.relu(x)
        x = self.gloabl_pool(x)
        x = paddle.squeeze(x, axis=[2, 3])
        x = self.fc1(x)
        x = x / paddle.norm(x, axis=1, keepdim=True)
        return x
```
通过 model.summary 查看网络结构。
```python
model_2 = MyNet2()
model_info = paddle.summary(model_2, (10, 3, 32, 32))
print(model_info)
```
-------------------------------------------------------------------------------
   Layer (type)         Input Shape          Output Shape         Param #    
===============================================================================
     Conv2D-13       [[10, 3, 32, 32]]     [10, 32, 15, 15]         896      
     Conv2D-14       [[10, 32, 15, 15]]     [10, 64, 7, 7]        18,496     
     Conv2D-15        [[10, 64, 7, 7]]     [10, 128, 3, 3]        73,856     
AdaptiveAvgPool2D-4  [[10, 128, 3, 3]]     [10, 128, 1, 1]           0       
     Linear-5           [[10, 128]]            [10, 8]             1,032     
===============================================================================
Total params: 94,280
Trainable params: 94,280
Non-trainable params: 0
-------------------------------------------------------------------------------
Input size (MB): 0.12
Forward/backward pass size (MB): 0.89
Params size (MB): 0.36
Estimated Total Size (MB): 1.36
-------------------------------------------------------------------------------
…
